grasping_model.pth (torch, 623530 bytes, 30 tensors)

conv1.bias f4 [128]
-0.03645115 0.0 -0.44697535 -0.7508605 0.0 1.3896916 -0.27594724 0.260107
-1.1950185 -0.38314554 -0.10684453 0.06889764 0.0 0.0 -0.055588815 2.0793462
-0.079441585 0.07081789 0.0 0.0 -1.10566 0.0 -0.6499798 0.0
-0.1721366 -0.11502545 0.0 -0.119891554 -1.3664877 0.0 -0.06066184 -0.5831343
-0.90663785 -0.012794994 -0.08230827 -0.92278033 0.027125662 -0.52155995 0.0 -0.035117544
-0.87244296 1.5800812 -0.9901239 -0.040107973 -0.3128226 0.91275877 -0.6813551 -0.63452387
-0.48232496 0.44228086 -1.2557429 -0.6797726 0.0 -1.101056 0.0 0.0
-0.07506506 -0.8908033 0.0 0.0 0.0 0.0 0.0 0.0
-0.33578902 0.0 0.020748377 -0.06733381 0.0 -0.54836017 0.03147518 -0.3916513
0.0 0.0 0.0 0.0 -0.5920517 1.465923 -0.8982158 -0.8253711
-0.0878664 -0.73011106 -0.7654545 -0.25010502 2.1709154 -0.28405958 -0.18315655 0.0
-0.74058807 -0.12120283 -0.093830466 0.0 -1.282156 -0.4255507 0.0 -0.78732914
-0.055588797 -0.055587832 -0.056536924 -0.10972895 -0.031918347 -0.09432508 0.0 -0.11854957
0.0 -0.7837522 -1.0776644 -0.70824754 -2.2574747 0.0 0.0 0.0
-0.41439468 -1.3659153 0.0 -0.034302667 0.0 -0.008948318 2.4475968 -1.1060607
-0.059417434 -0.75382 -1.0560142 -0.053219322 0.0 -0.92059326 0.7361036 -0.06903773
00000000: cd4d 15bd 0000 0000 f4d9 e4be 6538 40bf
00000010: 0000 0000 6ae1 b13f f548 8dbe bf2c 853e
00000020: 5ef6 98bf a72b c4be 4ed1 dabd 351a 8d3d
00000030: 0000 0000 0000 0000 19b1 63bd 0214 0540
00000040: 45b2 a2bd f808 913d 0000 0000 0000 0000
00000050: 4486 8dbf 0000 0000 1465 26bf 0000 0000
00000060: 9444 30be 7792 ebbd 0000 0000 b489 f5bd
00000070: 12e9 aebf 0000 0000 8d78 78bd 4a48 15bf
00000080: 6b19 68bf 18a2 51bc 3d91 a8bd 553b 6cbf
00000090: a336 de3c f484 05bf 0000 0000 6ad7 0fbd
000000a0: 6c58 5fbf 1a40 ca3f c378 7dbf 4248 24bd
000000b0: 492a a0be 8faa 693f 4a6d 2ebf 2870 22bf
000000c0: 4cf3 f6be a372 e23e 2fbc a0bf 9405 2ebf
000000d0: 0000 0000 67ef 8cbf 0000 0000 0000 0000
000000e0: b6bb 99bd af0b 64bf 0000 0000 0000 0000
000000f0: 0000 0000 0000 0000 0000 0000 0000 0000
00000100: 8aec abbe 0000 0000 80f8 a93c 4fe6 89bd
00000110: 0000 0000 5561 0cbf 1eec 003d 8586 c8be
00000120: 0000 0000 0000 0000 0000 0000 0000 0000
00000130: b390 17bf 5da3 bb3f 78f1 65bf 854b 53bf
00000140: 4df3 b3bd 8fe8 3abf d3f4 43bf c40d 80be
00000150: 47f0 0a40 4270 91be 648d 3bbe 0000 0000
00000160: 2e97 3dbf 3039 f8bd 302a c0bd 0000 0000
00000170: b01d a4bf c8e1 d9be 0000 0000 678e 49bf
00000180: 14b1 63bd 11b0 63bd 4393 67bd 92b9 e0bd
00000190: d0bc 02bd 822d c1bd 0000 0000 1eca f2bd
000001a0: 0000 0000 fca3 48bf e8f0 89bf b64f 35bf
000001b0: 777a 10c0 0000 0000 0000 0000 0000 0000
000001c0: 8a2b d4be 50d6 aebf 0000 0000 f480 0cbd
000001d0: 0000 0000 f79b 12bc 6da5 1c40 6693 8dbf
000001e0: b25f 73bd 59fa 40bf 792b 87bf 81fc 59bd
000001f0: 0000 0000 00ac 6bbf 4971 3c3f a763 8dbd

conv1.lin.weight f4 [128, 2]
-0.013740592 -0.22579943 -0.13996534 -0.20313936 0.9936113 -1.3965768 -0.63035876 0.06477284
-0.091086 -0.10603907 -2.454732 0.90549505 0.007998086 -0.116848916 -0.50426245 0.047426682
0.016621402 -0.16067314 -0.22336072 0.023262871 -0.04324786 -0.20854585 -0.22511601 0.012471235
-0.10322484 0.008671463 -0.038096115 -0.105414666 -0.18507229 -0.030260488 0.7756525 -1.2998469
0.0151263075 -0.23094459 -0.17959568 0.014312469 -0.16668437 -0.20486398 -0.046565115 -0.1853656
0.028650112 -0.44134694 -0.0015840679 -0.16230033 0.017804943 -0.17622444 -0.21284348 -0.21300544
-0.07437349 0.007852346 -1.5486071 0.15331197 -0.1357543 -0.119466685 -0.06596765 -0.083562866
0.024628496 -0.23143731 -0.015453622 -0.14925729 -0.0408219 -0.116082594 -0.7094976 0.07209354
0.017540459 -0.23780362 -0.12516898 -0.007525112 -0.036432035 -0.23743398 0.030248698 -0.33058172
-0.21963105 0.021631226 0.011864672 -0.13591303 -0.18011063 -0.12868956 -0.0031766938 -0.18811473
0.023511587 -0.232327 0.6678907 -2.6419487 0.009524772 -0.07393007 -0.19272815 -0.018204084
-0.04152519 0.005052336 -2.4533513 0.39235127 0.0018107381 -0.09264847 -0.0028738114 -0.18050161
0.004917993 -0.03866993 0.047800254 -0.5425954 0.7534064 -1.4497614 0.003760893 -0.14163768
-0.026781604 -0.08558187 1.1239939 -0.39458814 -0.18000023 -0.026934698 -0.2104082 -0.13962327
-0.033932973 -0.12514788 0.014765288 -0.29496798 -0.09894943 -0.121221446 -0.1887696 -0.124000594
-0.19105944 -0.15745892 -0.0055630803 -0.149604 0.004172072 -0.16873471 -0.16228637 -0.1528236
0.08831479 -0.9990247 -0.012366042 -0.10375666 -0.0019348412 -0.00034469878 -0.21269614 -0.038328562
-0.13369405 -0.024180368 0.823686 -1.9282348 -0.23813759 0.023385584 -0.02554034 0.0027525385
-0.03846185 -0.08886585 -0.20139755 -0.21468234 -0.12658751 -0.010146588 0.0013803989 -0.15588827
-0.04471409 0.006329616 0.93066734 -2.4486902 0.0040223943 -0.09221596 0.0034921065 -0.019474365
-0.027542563 -0.23681979 0.015605942 -0.18766265 0.028766213 -0.3124049 -0.379 0.03809882
0.9148475 -1.4746438 -0.35747403 0.03622999 0.0018857288 -0.014900398 -0.18083915 -0.107379355
-0.014198631 0.0023566422 -0.14916351 -0.011670114 0.020862274 -0.22465996 -0.06349191 -0.1959849
0.14777388 -2.2391343 -0.034505494 0.004793626 -0.07524094 -0.17153734 0.013938215 -0.14273205
-0.26430795 -0.02121591 -0.27017537 -0.03225685 -0.08825775 0.00863835 -0.1486294 -0.04596375
-0.08815037 0.008791884 -0.13032041 -0.05600025 0.014474481 -0.18534939 0.001255698 -0.010606999
-0.16492765 -0.14547846 0.008101181 -0.06414043 0.034064446 -0.5089424 0.0095128855 -0.13313207
-0.007969323 -0.03151306 -0.11458288 -0.1996198 -0.0028692484 -0.08995037 -0.15436497 -0.029897198
-1.3823793 -0.07118608 0.63880455 -5.0449004 -0.19061507 -0.15065992 -0.12728688 -0.017773822
-0.028763324 -0.105499 -1.334903 0.13160557 -0.96071136 0.88334954 0.003386686 -0.46604925
-0.04049276 0.00419094 -0.6066872 0.0624396 0.039446063 -0.48342615 -0.13621432 0.0022916514
-0.2081908 -0.059068456 0.02569151 -0.34653124 -1.6760024 0.7948617 -0.12751311 -0.041686583
00000000: 3820 61bc f737 67be 1353 0fbe c403 50be
00000010: 4f5d 7e3f 07c3 b2bf 315f 21bf 9fa7 843d
00000020: 4c8b babd 032b d9bd 541a 1dc0 86ce 673f
00000030: 670a 033c 7c4e efbd 5817 01bf 7b42 423d
00000040: 9b29 883c 8087 24be acb8 64be c791 be3c
00000050: ab24 31bd 0b8d 55be d084 66be 2754 4c3c
00000060: 8b67 d3bd c012 0e3c ac0a 1cbd a5e3 d7bd
00000070: 9783 3dbe d8e4 f7bc 2a91 463f 6261 a6bf
00000080: 55d4 773c bd7c 6cbe eee7 37be d97e 6a3c
00000090: 4faf 2abe ddc7 51be 10bb 3ebd 7bd0 3dbe
000000a0: a4b3 ea3c 3af8 e1be 80a0 cfba 0f32 26be
000000b0: acdb 913c 2e74 34be a4f3 59be 191e 5abe
000000c0: 2151 98bd 20a7 003c c238 c6bf d0fd 1c3e
000000d0: 2d03 0bbe f3aa f4bd 0c1a 87bd 0223 abbd
000000e0: b3c1 c93c e7fd 6cbe 3031 7dbc e7d6 18be
000000f0: dd34 27bd b6bc edbd a2a1 35bf c7a5 933d
00000100: 02b1 8f3c cb82 73be 4c2c 00be 3795 f6bb
00000110: c239 15bd e521 73be 1ecc f73c 0242 a9be
00000120: f6e6 60be f833 b13c 0b64 423c c92c 0bbe
00000130: ec6e 38be 32c7 03be 1430 50bb 26a1 40be
00000140: 5f9b c03c 21e7 6dbe e3fa 2a3f b015 29c0
00000150: ca0d 1c3c a668 97bd 875a 45be bb20 95bc
00000160: 5116 2abd 118e a53b b503 1dc0 44e2 c83e
00000170: 4a56 ed3a 7bbe bdbd 8e56 3cbb 6ad5 38be
00000180: 1e27 a13b 5c64 1ebd 33ca 433d 88e7 0abf
00000190: 3edf 403f c891 b9bf 5079 763b 7809 11be
000001a0: 1865 dbbc 8c45 afbd 08df 8f3f 7507 cabe
000001b0: fb51 38be 28a6 dcbc 3f75 57be 67f9 0ebe
000001c0: 4dfd 0abd c426 00be 1bea 713c 0b06 97be
000001d0: 00a6 cabd f342 f8bd d14c 41be 06f4 fdbd
000001e0: 16a5 43be e93c 21be 804a b6bb ca31 19be
000001f0: e0b5 883b cbc8 2cbe 662e 26be ca7d 1cbe
00000200: 62de b43d 15c0 7fbf f09a 4abc 5f7e d4bd
00000210: 7f9a fdba b0b8 b4b9 04cd 59be 69fe 1cbd
00000220: 18e7 08be e815 c6bc 16dd 523f 66d0 f6bf
00000230: 57da 73be 2093 bf3c fa39 d1bc ef63 343b
00000240: 2c8a 1dbd 4cff b5bd 293b 4ebe b0d5 5bbe
00000250: 28a0 01be e03d 26bc 80ee b43a 2da1 1fbe
00000260: 1f26 37bd ab68 cf3b 3740 6e3f 57b7 1cc0
00000270: 4ace 833b b9db bcbd d3db 643b b488 9fbc
00000280: f1a0 e1bc e380 72be 11b0 7f3c a32a 40be
00000290: 1fa7 eb3c 89f3 9fbe 4a0c c2be 820d 1c3d
000002a0: 7233 6a3f 21c1 bcbf d606 b7be e665 143d
000002b0: 8f2a f73a cd20 74bc e62d 39be b5e9 dbbd
000002c0: 60a1 68bc e571 1a3b 52be 18be 0134 3fbc
000002d0: 5ce7 aa3c 430d 66be 0c08 82bd 44b0 48be
000002e0: 0952 173e fa4d 0fc0 a255 0dbd d913 9d3b
000002f0: ec17 9abd 7ca7 2fbe 1c5d 643c 5a28 12be
00000300: 5f53 87be fdcc adbc 6d54 8abe c21f 04bd
00000310: 7bc0 b4bd de87 0d3c 4e32 18be 7c44 3cbd
00000320: 2e88 b4bd d60b 103c b772 05be 8560 65bd
00000330: 6026 6d3c 3bcc 3dbe 3c96 a43a fac8 2dbc
00000340: cbe2 28be 4ef8 14be d1ba 043c 0f5c 83bd
00000350: 2987 0b3d 0d4a 02bf efdb 1b3c c653 08be
00000360: c391 02bc d713 01bd 6eaa eabd 2269 4cbe
00000370: 000a 3cbb e637 b8bd da11 1ebe f8ea f4bc
00000380: cef1 b0bf 02ca 91bd b288 233f d36f a1c0
00000390: 9930 43be 9846 1abe 7e57 02be 689a 91bc
000003a0: 10a1 ebbc dc0f d8bd 1ade aabf 9cc3 063e
000003b0: 2ef1 75bf 3223 623f 2af3 5d3b 029e eebe
000003c0: bcdb 25bd 2754 893b da4f 1bbf aac0 7f3d
000003d0: 3292 213d a283 f7be c47b 0bbe 882f 163b
000003e0: f82f 55be c4f1 71bd 0077 d23c 8b6c b1be
000003f0: 3f87 d6bf 0e7c 4b3f cc92 02be 8dbf 2abd

conv2.bias f4 [128]
-0.2058057 -3.7455711 -1.3184794 -0.22346793 -0.33481336 -0.73682237 -0.59321153 -0.06294865
-0.060055055 -0.24657016 -0.3972911 -0.102097444 -0.18173134 -0.28658092 -0.31678993 -0.060227033
-1.5295311 -0.299889 -0.34692773 -2.7320416 -0.14634627 -0.038062286 3.7851346 -0.020493256
-0.44271874 -0.3777073 -0.3341342 2.0923285 -0.22916275 -0.26966858 -0.4808533 -0.060055032
-0.36820385 -0.3107669 -0.060055025 -0.59462136 -0.28710163 -0.12611856 -0.078546315 -0.269389
-0.11645039 -0.38647333 -0.37877062 -0.3774166 -8.40823 -0.09345037 -0.44290575 0.8112944
-0.2785814 -0.44863755 -0.26825345 -2.2910302 -3.2032404 3.0055914 -0.311941 -0.41706347
-0.034914803 -1.8380336 -0.15573165 -0.038095877 0.0 -0.30405453 -1.082692 -0.21186799
-0.34760278 -0.47002137 -0.3369628 -6.303255 -3.0237224 -0.24569426 0.31425825 -0.331556
-0.37619334 -0.5718818 -0.34752536 -0.88820916 -0.36033598 -0.0516143 -0.27328023 -0.37577438
-0.62926126 -0.3205307 -0.060055032 -0.6742556 -0.28478062 3.4382586 -0.2512414 0.56822866
-0.060055047 -0.42512357 -0.42585957 -5.061833 0.6512671 1.2951202 -0.027973052 -0.76771975
-1.3895799 -2.6090827 2.025379 2.5694711 -0.060055044 -0.4027867 -2.0558684 -0.28697962
-0.27135432 -0.36656454 -0.34454384 3.1083663 3.270535 -0.3656306 -0.34414354 -0.14523025
-0.24564394 -2.805977 -0.06005505 -0.29691052 -0.4062565 -0.7005057 -0.4925409 -0.31572634
-0.07735972 -0.3175044 -0.053414036 -0.058124527 -0.2667741 2.3124845 -0.06955664 -0.08435959
00000000: bbbe 52be 70b7 6fc0 efc3 a8bf c7d4 64be
00000010: a86c abbe 64a0 3cbf b6dc 17bf 39eb 80bd
00000020: 4afc 75bd e37c 7cbe bd69 cbbe 7718 d1bd
00000030: c817 3abe bcba 92be 4a32 a2be 9fb0 76bd
00000040: adc7 c3bf 0d8b 99be 83a0 b1be c5d9 2ec0
00000050: ccdb 15be 33e7 1bbd a53f 7240 79e1 a7bc
00000060: 08ac e2be da62 c1be a313 abbe b6e8 0540
00000070: a4a9 6abe 0012 8abe 6732 f6be 44fc 75bd
00000080: 3785 bcbe d71c 9fbe 42fc 75bd 1b39 18bf
00000090: fcfe 92be 3925 01be e4dc a0bd 5bed 89be
000000a0: 8b7d eebd d5df c5be 39ee c1be c03c c1be
000000b0: 1c88 06c1 e862 bfbd 8bc4 e2be fdb0 4f3f
000000c0: 39a2 8ebe d2b3 e5be 8458 89be 3da0 12c0
000000d0: e401 4dc0 9c5b 4040 bbb6 9fbe 5889 d5be
000000e0: d302 0fbd af44 ebbf 1e78 1fbe 6c0a 1cbd
000000f0: 0000 0000 09ad 9bbe a795 8abf ecf3 58be
00000100: fef8 b1be a4a6 f0be 6386 acbe 44b4 c9c0
00000110: ab84 41c0 4797 7bbe 75e6 a03e b5c1 a9be
00000120: 6a9c c0be d866 12bf d8ee b1be ad61 63bf
00000130: f57d b8be 8469 53bd 63eb 8bbe 8065 c0be
00000140: 4417 21bf 9a1c a4be 44fc 75bd 049c 2cbf
00000150: c4ce 91be 6e0c 5c40 b6a2 80be 6f77 113f
00000160: 48fc 75bd cca9 d9be 440a dabe 89fa a1c0
00000170: 71b9 263f 80c6 a53f be27 e5bc 4889 44bf
00000180: c1dd b1bf 36fb 26c0 cf9f 0140 3772 2440
00000190: 47fc 75bd 0f3a cebe 5993 03c0 feee 92be
000001a0: f4ee 8abe 59ae bbbe 0d68 b0be 79ef 4640
000001b0: 7250 5140 ef33 bbbe 9533 b0be 3db7 14be
000001c0: 168a 7bbe 2195 33c0 49fc 75bd a804 98be
000001d0: da00 d0be 5754 33bf 522e fcbe e2a6 a1be
000001e0: c66e 9ebd f08f a2be adc8 5abd fc13 6ebd
000001f0: 9d96 88be bfff 1340 b673 8ebd b9c4 acbd

conv2.lin.weight f4 [128, 128]
-0.13848677 -0.007900074 -0.30161574 -0.16045903 0.10914676 0.000634104 -0.10639908 -0.00012719631
-0.10332528 -0.32487327 -0.15289944 -0.06254331 0.08135323 -0.022518843 -0.038140856 0.04779562
-0.08583162 0.12806766 -0.064442545 0.089214996 -0.31240702 -0.073484406 -0.22120309 -0.098138526
-0.08092308 0.020950213 -0.13086176 -0.026462898 -0.13907655 -0.112907514 -0.028135538 -0.08587914
-0.30054417 -0.11038186 -0.11111818 -0.0719407 -0.06901036 -0.24332595 0.11245419 -0.04946874
-0.31656483 0.15089332 -0.05920783 -0.05955518 -0.1922064 0.0067436397 -0.3209668 -0.27627224
-0.31674263 -0.08742939 0.046798095 -0.20654172 0.11660127 -0.06870172 -0.016805336 0.007289931
0.12700327 -0.32584745 -0.07697266 0.035995096 0.10429527 -0.088334166 0.053133637 -0.095993996
0.17744416 0.050547764 -0.05557397 -0.12584302 0.15019904 -0.14121161 -0.2204521 -0.18613897
-0.045071945 0.034071043 0.14935096 -0.043504223 -0.30717093 -0.11206011 -0.34821466 -0.11009464
-0.12081157 -0.21929327 -0.2560312 -0.28618786 0.034071222 -0.35367277 -0.27765453 0.11540066
-0.3569365 -0.12930796 -0.11249154 0.12130915 -0.16661718 -0.1266006 -0.045300923 -0.28543013
0.12795366 -0.1187688 -0.07007707 -0.079623565 -0.24896878 -0.1524507 0.09616993 -0.33685642
0.011628583 -0.1340151 -0.35050184 -0.09483201 -0.115562096 0.061693043 0.03475979 0.04080446
-0.0141854435 -0.10612951 -0.007746026 -0.079571694 0.11838265 0.0074576735 -0.25307468 -0.22513619
-0.18953697 -0.24237461 -0.30316052 0.11802848 -0.021713406 -0.20188448 0.02531591 -0.09949871
-0.092043824 0.095173195 -0.031967357 -0.4081428 -0.015263975 -0.0706614 -0.094490476 -0.08475243
0.22916034 0.061748013 -0.00029265255 -0.042356588 0.10435946 -0.08413848 -0.034401074 -0.5531603
0.08639004 0.08745391 0.04143551 0.077582166 -0.0323519 -0.048947044 0.15099235 -0.074874684
0.035704628 -4.787789 0.065063775 -0.13079797 0.17955522 0.09306446 0.08874025 -0.4316564
0.10302036 0.07205682 0.03714048 0.08896524 -0.04200854 -0.02661291 -0.057440616 -0.12271257
0.07753604 -0.26852828 0.25615522 -0.17705281 0.095607504 -0.89325464 -0.020127641 -0.10350492
0.05241833 0.012578785 -1.544237 -0.121582985 0.12181203 0.88339776 0.10869776 0.010622501
0.025704883 -0.12640893 0.02733609 0.08378139 0.060699314 0.14309047 -0.0029067993 -0.070920266
-0.32583797 0.10427962 -0.12777354 0.078326255 0.049586967 -7.7851977 -0.020858148 -0.045379236
0.08902866 0.13680224 0.15182923 -0.07675559 0.15033668 -1.3937001 0.14805926 0.045387708
0.10521299 -0.16850416 0.058628954 -0.05853834 -1.1642501 -0.18464442 -0.05272315 -0.13003664
0.21216491 0.02140433 0.09178924 0.000725016 -0.16568904 -0.07040206 0.1418813 0.08687806
-0.054334003 0.08148578 -0.10212613 -0.14333163 -0.0029387102 -0.17890684 -0.14662728 0.05185624
-0.14369595 0.19913653 -0.088022985 -0.041277826 0.35795948 0.02296029 -0.08009524 -0.079540655
-3.7368035 -0.17602365 0.11952035 -0.10037901 0.07275802 -5.0357585 0.01424672 0.124890245
-0.1182438 -0.4187792 -0.022856103 0.018400539 0.14543645 -0.011034626 -2.9319627 0.083447024
00000000: 7acf 0dbe 506f 01bc 616d 9abe 5f4f 24be
00000010: 5688 df3d 003a 263a c3e7 d9bd 0060 05b9
00000020: 349c d3bd ca55 a6be ac91 1cbe b516 80bd
00000030: 869c a63d 7079 b8bc 9639 1cbd 57c5 433d
00000040: 7dc8 afbd 2b24 033e 74fa 83bd 5ab6 b63d
00000050: d0f3 9fbe fe7e 96bd 1083 62be dafc c8bd
00000060: 00bb a5bd c89f ab3c a000 06be b8c8 d8bc
00000070: 156a 0ebe 0e3c e7bd 807c e6bc 67e1 afbd
00000080: ede0 99be e20f e2bd ee91 e3bd a555 93bd
00000090: 4e55 8dbd 702a 79be 624e e63d bc9f 4abd
000000a0: c914 a2be c783 1a3e e983 72bd 22f0 73bd
000000b0: c1d1 44be c0f9 dc3b c355 a4be 8e73 8dbe
000000c0: 172c a2be 2e0e b3bd 5caf 3f3d ac7f 53be
000000d0: a6cc ee3d 7db3 8cbd 58ab 89bc 60e0 ee3b
000000e0: 250d 023e 7ad5 a6be d8a3 9dbd 986f 133d
000000f0: c298 d53d 8be8 b4bd a8a2 593d 8098 c4bd
00000100: ecb3 353e 2c0b 4f3d 88a1 63bd fedc 00be
00000110: c7cd 193e c799 10be 32be 61be 379b 3ebe
00000120: 5c9d 38bd 148e 0b3d 75ef 183e 7c31 32bd
00000130: 8245 9dbe c57f e5bd 3149 b2be 4c79 e1bd
00000140: 0e6c f7bd 6a8e 60be 8516 83be 3787 92be
00000150: 448e 0b3d 9914 b5be bc28 8ebe 2e57 ec3d
00000160: 62c0 b6be 4e69 04be f761 e6bd ee70 f83d
00000170: b29d 2abe 96a3 01be 768d 39bd e623 92be
00000180: 4906 033e 0e3d f3bd 9184 8fbd ae11 a3bd
00000190: acf1 7ebe 091c 1cbe bef4 c43d 7278 acbe
000001a0: d085 3e3c 413b 09be fa74 b3be 4937 c2bd
000001b0: d2ab ecbd d8b1 7c3d 4860 0e3d 9422 273d
000001c0: 106a 68bc 6e5a d9bd 60d2 fdbb 7cf6 a2bd
000001d0: 9a72 f23d 805f f43b 0193 81be 1a8a 66be
000001e0: fb15 42be 0d31 78be db37 9bbe eab8 f13d
000001f0: 50e0 b1bc ceba 4ebe 5063 cf3c fbc5 cbbd
00000200: 7981 bcbd 2aea c23d 34f0 02bd 18f8 d0be
00000210: c015 7abc edb6 90bd 3984 c1bd af92 adbd
00000220: 02a9 6a3e 7ceb 7c3d 296f 99b9 1a7e 2dbd
00000230: 6aba d53d cc50 acbd 24e8 0cbd ea9b 0dbf
00000240: 43ed b03d 091b b33d 48b8 293d 66e3 9e3d
00000250: 6d83 04bd b27c 48bd bd9d 1a3e e657 99bd
00000260: 043f 123d 9135 99c0 2840 853d e7ef 05be
00000270: 53dd 373e 9498 be3d 73bd b53d 1102 ddbe
00000280: 57fc d23d 8792 933d 9e20 183d 6833 b63d
00000290: 2611 2cbd 5103 dabc da46 6bbd ba50 fbbd
000002a0: 37cb 9e3d 8a7c 89be c726 833e 554d 35be
000002b0: decd c33d 56ac 64bf b9e2 a4bc 63fa d3bd
000002c0: 9ab4 563d 4017 4e3c 8fa9 c5bf 8000 f9bd
000002d0: 9678 f93d 5b26 623f ee9c de3d 000a 2e3c
000002e0: 0c93 d23c 5871 01be f0ef df3c 9495 ab3d
000002f0: d89f 783d 4f86 123e 0080 3ebb a53e 91bd
00000300: 3cd4 a6be 8e90 d53d 11d7 02be 8469 a03d
00000310: b41b 4b3d 5720 f9c0 b5de aabc 94df 39bd
00000320: a854 b63d e315 0c3e 1f79 1b3e 0932 9dbd
00000330: dcf1 193e c464 b2bf d99c 173e 76e8 393d
00000340: e879 d73d 5b8c 2cbe ea24 703d e6c5 6fbd
00000350: 2606 95bf 6d13 3dbe 3bf4 57bd 5328 05be
00000360: c241 593e 2258 af3c fffb bb3d 000f 3e3a
00000370: 63aa 29be f52e 90bd 5549 113e 20ed b13d
00000380: 558d 5ebd 04e2 a63d 8127 d1bd 87c5 12be
00000390: 6097 40bb 5b33 37be 7625 16be 3567 543d
000003a0: 0825 13be 72ea 4b3e 6545 b4bd f012 29bd
000003b0: 7746 b73e 3817 bc3c f908 a4bd 36e6 a2bd
000003c0: ca27 6fc0 8b3f 34be 16c7 f43d 8393 cdbd
000003d0: 2802 953d ef24 a1c0 136b 693c 75c6 ff3d
000003e0: ce29 f2bd 3a6a d6be b93c bbbc babc 963c
000003f0: 4bed 143e 93ca 34bc 47a5 3bc0 46e6 aa3d

conv3.bias f4 [128]
-0.50988317 0.7105108 -0.30134547 -2.1661465 -0.47481018 -0.06005504 -0.092306055 -0.14564477
-3.20565 -1.5980207 -0.20722477 -0.5492115 2.9506671 -0.4831224 -0.06041213 0.44023946
-0.060055036 -0.050306384 -0.10312872 -0.11970073 -0.3553328 -0.13315645 -0.14094041 -0.47252098
-0.6266793 -0.40290365 -0.08154361 -0.07461099 -0.060055055 -0.10084944 -0.12984914 0.0
-0.060055036 -0.19507207 6.6142473 1.2925442 3.515588 -2.1778154 -0.5293664 -0.060055036
-0.4114792 -4.2271614 -0.32010773 -0.06428452 -0.070484 -0.11701748 -0.8739902 -2.1882024
-0.056983456 -0.19594172 -0.07275897 -2.7654903 -0.16296329 -0.4831552 -0.084307455 -0.2027623
-0.05187637 -0.13383693 -0.09374192 -0.6110411 -0.7116601 -2.4227016 -0.3094701 1.4476863
-0.06565944 -0.44661653 -0.5318207 -0.27282766 0.16187072 -2.1802642 -0.27232692 1.4226364
1.0687149 -0.16235237 -0.15143354 -0.06953922 -0.26082152 -1.4292995 -0.13158822 0.39332578
-0.37750098 -0.06087024 -0.39233413 -0.448104 -0.15502247 -0.07781548 -0.055588912 -0.48665437
-0.20180272 -0.060055047 -0.4121173 0.8066106 -0.565277 -2.966195 0.09139603 -0.14477678
0.84553313 -0.14668751 -0.40524888 -0.032030165 -0.060055044 1.224557 -0.37081608 -0.425223
-0.3496191 -0.53555137 0.3590337 -0.12536195 -1.0315273 0.6148148 -1.0434645 -0.07652068
0.22727795 -0.060055055 -0.060055036 -0.07524755 -0.17526749 -0.14256522 -0.21830162 -0.27859738
-0.08232296 -0.4732567 -0.060055036 -0.30816492 0.7843509 -0.24633636 -0.051131755 -0.061818946
00000000: b487 02bf 09e4 353f f449 9abe 25a2 0ac0
00000010: 521a f3be 46fc 75bd f50a bdbd e723 15be
00000020: 5f29 4dc0 f18b ccbf bb32 54be 2099 0cbf
00000030: bbd7 3c40 d25b f7be b672 77bd 1167 e13e
00000040: 45fc 75bd 110e 4ebd 2635 d3bd a825 f5bd
00000050: 2eee b5be 2a5a 08be af52 10be 45ee f1be
00000060: 0e6e 20bf 6349 cebe 5600 a7bd a6cd 98bd
00000070: 4afc 75bd 278a cebd 2cf7 04be 0000 0000
00000080: 45fc 75bd f9c0 47be eaa7 d340 1772 a53f
00000090: 65ff 6040 5461 0bc0 8e84 07bf 45fc 75bd
000000a0: 67ad d2be e844 87c0 29e5 a3be 9aa7 83bd
000000b0: ea59 90bd dca6 efbd d2bd 5fbf 820b 0cc0
000000c0: 7c67 69bd f2a4 48be a802 95bd cbfd 30c0
000000d0: d9df 26be 1e60 f7be 63a9 acbd eca0 4fbe
000000e0: 517c 54bd 8c0c 09be c4fb bfbd 316d 1cbf
000000f0: 5b2f 36bf 8b0d 1bc0 dd72 9ebe c94d b93f
00000100: 7578 86bd ecaa e4be 6725 08bf 11b0 8bbe
00000110: 70c1 253e 7389 0bc0 6f6e 8bbe f318 b63f
00000120: a6cb 883f b33f 26be 6511 1bbe 946a 8ebd
00000130: 668a 85be 49f3 b6bf 10bf 06be ff61 c93e
00000140: cf47 c1be 1353 79bd 05e0 c8be e36d e5be
00000150: 36be 1ebe b95d 9fbd 33b1 63bd c32a f9be
00000160: 5fa5 4ebe 48fc 75bd 0a01 d3be 087e 4e3f
00000170: feb5 10bf 24d6 3dc0 d72d bb3d 5d40 14be
00000180: dc74 583f 4035 16be c87c cfbe 1032 03bd
00000190: 47fc 75bd 49be 9c3f 9bdb bdbe d4b6 d9be
000001a0: 4601 b3be e519 09bf 44d3 b73e e25e 00be
000001b0: 1609 84bf 8164 1d3f 3f90 85bf e0b6 9cbd
000001c0: 8dbb 683e 4afc 75bd 45fc 75bd 631b 9abd
000001d0: 5279 33be 9efc 11be 768a 5fbe 51a4 8ebe
000001e0: f198 a8bd b44e f2be 45fc 75bd cbc7 9dbe
000001f0: 38cb 483f 993f 7cbe 886f 51bd dd35 7dbd

conv3.lin.weight f4 [128, 128]
0.037424833 -0.14168215 -0.25709286 0.036758453 0.113204226 -0.03859373 -0.05621545 -0.07998928
0.058972433 0.08638865 0.060599178 0.03231463 -0.110617876 -0.09543463 -0.068962865 -0.0991904
-0.25248188 -0.071903564 -0.066477746 -0.19374275 0.09769623 0.010609657 -0.3262508 -0.080746405
0.036265627 0.1351649 0.0772302 -0.27568254 -0.15070328 0.07482071 -0.22325109 -0.10141571
0.15227763 0.09947522 -0.08248195 -0.13241488 0.1086504 -0.11374666 0.101217076 0.00039166212
0.14756154 -0.06504942 0.02374658 0.035751015 -0.27781337 -0.0223369 0.076320454 -0.19738297
0.061629936 -0.10122684 0.14876895 -0.115877815 0.020536356 -0.16150634 -0.3156653 -0.05756841
0.06942764 -0.16747409 0.037283897 -0.06503451 0.039651662 0.010599777 -0.28523585 0.103398904
-0.12594064 -0.09333851 -0.07849292 -0.30548912 -0.17847311 -0.22651432 -0.025900587 -0.056203566
-0.13270985 0.127672 0.061675504 -0.36038283 -0.010933399 0.0028063208 -0.08533206 0.049004078
0.06945075 -0.0011988282 -0.0045609474 -0.07856694 -0.11280763 -0.31864285 0.11896865 -0.32385227
0.092205465 -0.063405834 0.085039824 -0.26301664 -0.0818278 -0.30261156 -0.03839519 -0.11529465
-0.07058348 -0.18705474 -0.16788216 -0.20805623 0.102997705 0.09661253 -0.31489563 -0.13459289
-0.11797005 -0.099376 -0.0019581765 -0.10378927 -0.17546816 0.012421593 -0.046926007 0.14865689
-0.04311104 -0.25868577 -0.006723881 0.13425227 -0.027773887 -0.16305925 -0.14335442 -0.114538014
-0.25465962 -0.01456739 -0.04068257 0.055929646 -0.28768298 -0.16640359 0.05406177 0.13205825
-0.12271434 0.79167193 -12.969191 -0.065721214 0.04324549 0.42872518 0.15115945 0.161288
-0.032724265 0.37809533 0.15586285 0.015861552 0.049720436 -0.22335282 -0.024158105 -0.06850295
0.03407406 -0.08636874 -0.13311079 0.001489924 -0.3096214 0.11713942 -0.56077373 0.1175495
0.15900551 0.19601756 0.14834526 0.79533744 -0.35751933 -0.18850154 0.27119285 -0.08485075
-0.17011505 0.37649155 -0.08146988 0.092946365 0.15777166 0.061124 0.11704862 0.288999
-0.051807445 -0.31862006 0.021100115 0.09519953 -0.41565898 0.01546248 0.35204917 0.21274213
-0.0022959122 -0.16882451 0.21135096 -0.11637016 -0.41688502 0.34598282 0.12799722 -4.662893
0.034807682 -0.017797552 0.038891416 -0.106165975 0.13851489 0.43438762 -9.571782 -0.21698174
-0.009855065 -0.28034264 -0.3632514 0.27302355 0.046103477 -0.046025965 -0.14876927 -0.044694304
0.06109962 -0.28162557 -0.13064122 -16.178255 -0.3265675 0.059969287 0.18856284 -0.005081293
0.07445121 -0.03409536 0.015612538 -0.07358393 0.38543463 -0.3302534 0.23853554 0.511558
-0.012224301 -0.0112297665 -0.065645464 0.058992118 0.17907608 0.04388365 -0.13382989 -0.039281238
-0.17667785 -0.09124924 -0.30343017 0.5590395 -0.043569937 0.07115987 -0.475837 0.15130544
0.045329023 -0.3210348 0.049705014 -1.6434594 -0.6406271 -0.09973894 -0.39997557 0.46449023
-0.2557559 -0.009828547 0.124241665 0.23829433 0.09788525 -0.05295997 -0.22100265 0.106117025
0.33945298 -0.19181038 0.15988435 -0.0748869 -0.5736903 0.60626495 0.114956275 -0.04415364
00000000: c84a 193d 2015 11be ada1 83be 0890 163d
00000010: 9ed7 e73d 7614 1ebd 2c42 66bd 6bd1 a3bd
00000020: 148d 713d 88ec b03d d836 783d 585c 043d
00000030: a08b e2bd 3b73 c3bd 673c 8dbd 5624 cbbd
00000040: 4e45 81be 2d42 93bd 7c25 88bd 8064 46be
00000050: f614 c83d 20d4 2d3c 580a a7be 5f5e a5bd
00000060: 448b 143d ab68 0a3e de2a 9e3d 4326 8dbe
00000070: f651 1abe 9a3b 993d ef9b 64be 0ab3 cfbd
00000080: abee 1b3e aab9 cb3d 4cec a8bd c497 07be
00000090: 1a84 de3d 02f4 e8bd e64a cf3d 0058 cd39
000000a0: 5f1a 173e a138 85bd 3088 c23c a86f 123d
000000b0: 8e3d 8ebe e0fb b6bc e64d 9c3d c31e 4abe
000000c0: ac6f 7c3d 0450 cfbd e356 183e 5951 edbd
000000d0: dc3b a83c eb61 25be e29e a1be dacc 6bbd
000000e0: 1430 8e3d 547e 2bbe 00b7 183d d030 85bd
000000f0: c869 223d b0aa 2d3c 6f0a 92be cec2 d33d
00000100: 95f6 00be 4328 bfbd e5c0 a0bd 1269 9cbe
00000110: a8c1 36be 5ff3 67be 782d d4bc b635 66bd
00000120: 17e5 07be 73bc 023e 749f 7c3d 1984 b8be
00000130: 0022 33bc 40ea 373b 93c2 aebd 80b8 483d
00000140: 323c 8e3d 0022 9dba 0074 95bb b4e7 a0bd
00000150: b007 e7bd 2825 a3be d6a5 f33d f7cf a5be
00000160: 38d6 bc3d ebda 81bd 5c29 ae3d 1eaa 86be
00000170: 5595 a7bd e7ef 9abe 4644 1dbd 9a1f ecbd
00000180: 128e 90bd 478b 3fbe 4de9 2bbe b10c 55be
00000190: 76f0 d23d cadc c53d 003a a1be b8d2 09be
000001a0: 489a f1bd a585 cbbd c054 00bb 788f d4bd
000001b0: edad 33be f083 4b3c 7c35 40bd 8339 183e
000001c0: 3495 30bd 7672 84be 0054 dcbb 6d79 093e
000001d0: 1086 e3bc 01f9 26be 80cb 12be e892 eabd
000001e0: bf62 82be 10ac 6ebc c4a2 26bd 7c16 653d
000001f0: 2f4b 93be b465 2abe e06f 5d3d 473a 073e
00000200: a851 fbbd 03ab 4a3f ce81 4fc1 d898 86bd
00000210: 2f22 313d de81 db3e 8bc9 1a3e ae28 253e
00000220: e109 06bd b695 c13e 839a 1f3e 16f0 813c
00000230: a8a7 4b3d 9ab6 64be 38e7 c5bc 464b 8cbd
00000240: 3e91 0b3d 18e2 b0bd 324e 08be 8e49 c33a
00000250: b286 9ebe cbe6 ef3d de8e 0fbf cbbd f03d
00000260: 57d2 223e d4b8 483e d2e7 173e 3c9b 4b3f
00000270: c60c b7be 8c06 41be cad9 8a3e 3bc6 adbd
00000280: a432 2ebe 80c3 c03e aed9 a6bd aa5a be3d
00000290: e58e 213e 295d 7a3d 30b7 ef3d adf7 933e
000002a0: 0b34 54bd 2b22 a3be 26da ac3c f9f7 c23d
000002b0: 41d1 d4be 5756 7d3c ca3f b43e 13d9 593e
000002c0: 0477 16bb 55e0 2cbe 636c 583e 7a53 eebd
000002d0: f471 d5be a924 b13e b411 033e 6b36 95c0
000002e0: 8092 0e3d 2ccc 91bc 9b4c 1f3d 8c6d d9bd
000002f0: d9d6 0d3e 0e68 de3e 0526 19c1 7630 5ebe
00000300: 2377 21bc 1289 8fbe 16fc b9be bec9 8b3e
00000310: 00d7 3c3d b985 3cbd f956 18be 6011 37bd
00000320: 9843 7a3d 3a31 90be d0c6 05be 116d 81c1
00000330: db33 a7be 5ba2 753d 9e16 413e fa80 a6bb
00000340: e079 983d 94a7 0bbd bbcb 7f3c 2cb3 96bd
00000350: b057 c53e f916 a9be a942 743e 77f5 023f
00000360: 6f48 48bc 0efd 37bc 2171 86bd b8a1 713d
00000370: b85f 373e 58bf 333d b40a 09be 5de5 20bd
00000380: 0aeb 34be e2e0 babd 335b 9bbe 361d 0f3f
00000390: 6476 32bd 44bc 913d e8a0 f3be d0ef 1a3e
000003a0: edaa 393d ac5e a4be 7c97 4b3d e15c d2bf
000003b0: 2300 24bf ee43 ccbd 99c9 ccbe aad1 ed3e
000003c0: 70f2 82be ea07 21bc 6a72 fe3d 6e03 743e
000003d0: 1078 c83d 8eec 58bd 854e 62be e253 d93d
000003e0: c8cc ad3e f169 44be b9b8 233e 4e5e 99bd
000003f0: 5edd 12bf 2e34 1b3f 326e eb3d 72da 34bd

fc1.weight f4 [128, 128]
-0.029159337 -0.14667547 -0.060524188 -0.2480249 -0.23282889 -0.012471296 0.06644166 0.011630453
0.0069395825 0.03116569 -0.06924218 -0.26976904 -0.19366825 0.011208773 0.042663433 -0.18866484
-0.030047826 -0.01120007 -0.07099752 -0.08627764 -0.017256692 0.03290903 -0.076869436 -0.050479595
-0.014505103 0.006535828 -0.0009197891 0.052545913 -0.032535564 -0.29944304 -0.069429696 -0.045649864
-0.020065412 -0.026422892 -0.15951523 -0.17328657 0.0057674022 -0.18965387 0.034797184 -0.042696834
0.017559662 -0.2544535 -0.040303092 -0.047063783 -0.061082147 -0.035992503 -0.18154733 -0.13754289
0.03502325 -0.15512861 -0.05024591 -0.20129512 0.027619444 -0.039847683 -0.17214544 -0.071517244
-0.020226106 0.028587177 0.0053875595 -0.026961274 -0.03367929 -0.23831661 0.007427834 -0.24365999
0.08664141 0.07450429 0.042632647 -0.20774774 -0.22358489 -0.23804139 0.08338613 -0.17931865
-0.23302427 -0.024732918 0.006421894 -0.042285647 -0.24813741 -0.14061002 0.02527342 -0.27301845
-0.016353756 0.055368967 -0.046571404 0.02496551 -0.06235999 0.06972747 -0.052256297 -0.17392527
-0.017113134 0.045509942 0.0343785 -0.28097314 0.08355226 -0.06576965 -0.26809412 -0.06785408
-0.16395086 0.04381431 -0.024376817 0.082176305 0.07461282 -0.08711928 0.040920176 -0.15605861
0.021361202 -0.062112145 -0.2523279 0.060766555 -0.27042416 -0.044226594 -0.30023763 -0.029761016
-0.12048677 -0.07839709 -0.060598306 -0.08713049 0.08086736 -0.046587765 -0.07301863 -0.06978838
-0.27518666 0.027490556 -0.047339372 0.020378366 -0.28670156 -0.07560292 -0.04417564 0.03372152
-0.030240268 0.022099895 -0.0969524 -0.044174116 -0.07755578 -0.06279704 -0.0043996954 -0.012125604
-0.092650905 -0.011987567 -0.07591768 -0.09682169 -0.05638067 -0.05488353 -0.083792455 -0.06940331
-0.01736664 0.028473988 0.06756883 0.004535109 -0.022109432 0.07967832 0.073586665 -0.08685449
0.052351095 0.055925973 -0.059512783 -0.040293787 0.062415175 -0.0611778 -0.0816451 -0.022955522
0.05788163 -0.14312607 -0.029286489 -0.07649271 -0.100102276 0.0075105224 0.020552956 0.037076227
-0.10961321 0.01561219 -0.07555202 -0.072737694 -0.053797778 -0.07881149 -0.13571572 -0.028618412
0.028770633 -0.07660796 -0.09664728 -0.008472856 0.010326855 -0.07332463 0.016219292 -0.032272104
0.073639505 -0.04432721 0.040136732 0.08536679 -0.067481875 -0.004903368 0.08673426 -0.06249175
-0.017316826 0.07171812 0.05815362 -0.040172964 -0.054667458 -0.13889441 -0.009728655 -0.12674372
-0.07765606 -0.039865743 -0.027375545 -0.0052644387 0.016485853 -0.13783233 -0.021216713 -0.085687585
0.028736599 0.053366147 -0.03106462 0.064081885 -0.0052680075 -0.050445784 0.016685039 -0.086816184
0.032528125 -0.07314819 0.07945589 -0.067203246 0.07304215 0.008292971 -0.105392985 -0.064702526
0.005001063 -0.08555785 -0.06377844 -0.021608427 -0.03687746 0.001506947 -0.01453373 -0.012550524
-0.08302933 -0.022184223 -0.008532907 0.0689737 -0.08196901 0.01331962 -0.061460096 0.0596221
-0.09282463 -0.06965955 0.051908456 0.008348992 -0.022697091 0.07279878 -0.047624357 -0.009634614
-0.03135056 -0.06663485 0.07969733 0.028084308 -0.13896582 -0.00870537 -0.06790836 -0.045223314
00000000: 90df eebc 1832 16be 36e8 77bd 3dfa 7dbe
00000010: b26a 6ebe 6854 4cbc 9112 883d a88d 3e3c
00000020: 7065 e33b 304f ff3c d8ce 8dbd 2b1f 8abe
00000030: f850 46be 00a5 373c dabf 2e3d 5b31 41be
00000040: dc26 f6bc 8080 37bc 2667 91bd 55b2 b0bd
00000050: e85d 8dbc 9ecb 063d b96d 9dbd b1c3 4ebd
00000060: d0a6 6dbc 802a d63b 001e 71ba 623a 573d
00000070: 0344 05bd 9950 99be 2831 8ebd 5afb 3abd
00000080: 3860 a4bc d274 d8bc f657 23be 0972 31be
00000090: 7afc bc3b a034 42be 7e87 0e3d e0e2 2ebd
000000a0: 48d9 8f3c bb47 82be db14 25bd f4c5 40bd
000000b0: 4631 7abd e06c 13bd 8be7 39be 0bd8 0cbe
000000c0: 8a74 0f3d 09da 1ebe a8ce 4dbd 4f20 4ebe
000000d0: 2c42 e23c 5337 23bd e546 30be a277 92bd
000000e0: 38b1 a5bc a82f ea3c 208a b03b e4dd dcbc
000000f0: 4cf3 09bd 4509 74be 3065 f33b 0182 79be
00000100: 0d71 b13d b595 983d 929f 2e3d d3bb 54be
00000110: 70f3 64be 1fc1 73be 59c6 aa3d 4f9f 37be
00000120: ea9d 6ebe b09c cabc c06e d23b b733 2dbd
00000130: bc17 7ebe 13fc 0fbe 340a cf3c 13c9 8bbe
00000140: 50f8 85bc 92ca 623d a8c1 3ebd 7884 cc3c
00000150: 306d 7fbd 47cd 8e3d b30a 56bd 7719 32be
00000160: d830 8cbc a268 3a3d 78d0 0c3d b6db 8fbe
00000170: 731d ab3d 3db2 86bd a243 89be 14f7 8abd
00000180: bce2 27be a276 333d e4b1 c7bc 0d4c a83d
00000190: 9bce 983d 986b b2bd ea9b 273d d4cd 1fbe
000001a0: b0fd ae3c 4e69 7ebd 1f31 81be 5ae6 783d
000001b0: 0975 8abe f226 35bd bfb8 99be 60cd f3bc
000001c0: c5c1 f6bd a78e a0bd ee35 78bd 7871 b2bd
000001d0: c99d a53d d0d2 3ebd cb8a 95bd 36ed 8ebd
000001e0: 44e5 8cbe e033 e13c eee6 41bd 88f0 a63c
000001f0: 8cca 92be b4d5 9abd 84f1 34bd 941f 0a3d
00000200: 70ba f7bc d70a b53c fb8e c6bd ebef 34bd
00000210: 91d5 9ebd bc9b 80bd 522b 90bb 78aa 46bc
00000220: c2bf bdbd 8067 44bc bb7a 9bbd 734a c6bd
00000230: 6bef 66bd 8dcd 60bd 619b abbd 5323 8ebd
00000240: 7c44 8ebc 4842 e93c 8761 8a3d 409b 943b
00000250: d71e b5bc 632e a33d 9bb4 963d c4e0 b1bd
00000260: 1a6e 563d a212 653d adc3 73bd 190b 25bd
00000270: 0ea7 7f3d 9395 7abd 8c35 a7bd 380d bcbc
00000280: 4a15 6d3d a48f 12be 38ea efbc 36a8 9cbd
00000290: 6c02 cdbd d41a f63b ac5e a83c 3edd 173d
000002a0: e47c e0bd 45ca 7f3c 04bb 9abd 80f7 94bd
000002b0: 0f5b 5cbd eb67 a1bd 10f9 0abe 2971 eabc
000002c0: 64b0 eb3c a2e4 9cbd 02ef c5bd bcd1 0abc
000002d0: f831 293c 392b 96bd 52de 843c c12f 04bd
000002e0: 4fd0 963d 7390 35bd 6a66 243d c9d4 ae3d
000002f0: f033 8abd 6fac a0bb bba1 b13d 59f7 7fbd
00000300: 04dc 8dbc f3e0 923d 7e32 6e3d 688c 24bd
00000310: fcea 5fbd 563a 0ebe f064 1fbc 1bc9 01be
00000320: 240a 9fbd 434a 23bd ae42 e0bc 5081 acbb
00000330: 570d 873c eb23 0dbe acce adbc f97c afbd
00000340: 0469 eb3c 7696 5a3d 3b7b febc 5d3d 833d
00000350: 409f acbb 3da0 4ebd 10af 883c afcc b1bd
00000360: 363c 053d b8ce 95bd c5b9 a23d dba1 89bd
00000370: 1f97 953d 3edf 073c 47d8 d7bd c282 84bd
00000380: f5df a33b f438 afbd 459e 82bd 2804 b1bc
00000390: d20c 17bd c084 c53a e21e 6ebc b7a0 4dbc
000003a0: 480b aabd b0bb b5bc 9bcd 0bbc 1542 8d3d
000003b0: 5edf a7bd 893a 5a3c 95bd 7bbd 4e36 743d
000003c0: d71a bebd aba9 8ebd f69d 543d 36ca 083c
000003d0: 40ef b9bc 8717 953d c211 43bd 80da 1dbc
000003e0: 7269 00bd da77 88bd 5b38 a33d 1011 e63c
000003f0: 0e4d 0ebe f8a0 0ebc 8a13 8bbd 153c 39bd

fc1.bias f4 [128]
-0.2630866 -0.007171573 -0.13701823 -0.13984054 0.95562947 1.0985727 3.199129 -0.3227426
-0.077791296 1.0818205 -0.29433832 -0.0762469 -0.21511629 -0.091485985 -0.12580569 -0.37097695
0.5825723 -0.085000895 -0.04393595 0.0031427797 -0.32879397 -0.12928358 -0.33226094 -0.015704824
-0.10641014 0.5441653 0.030365322 -0.066442944 3.01274 3.0848284 -0.08573505 1.0467923
-0.11098972 -0.20402221 -0.0050293454 0.30156192 6.0037327 -0.341964 -0.8479625 2.2648277
-0.087054886 3.8366206 -0.13393976 -0.043170605 -0.18326741 -0.2693811 -0.12402071 0.21896546
-0.13745832 1.7587292 -0.07237207 -0.05620979 -0.28286916 3.447957 2.6015928 -0.028872898
1.6576282 0.56830287 -0.32845038 -0.30027986 -0.05220317 -0.08331892 -0.35589346 0.14866057
0.0062298262 4.0269346 -0.1481332 0.017590847 1.583393 -0.10261823 -1.128309 1.4688371
-0.25392115 5.054713 -0.08509142 1.7290388 -0.1849916 -0.16475701 -0.37958178 -0.010805344
-0.0067513366 -0.3549769 -0.3595357 -0.20126498 0.0023179431 6.393347 0.015728565 -1.5828577
-0.3100862 0.73160917 0.7366253 0.025228385 2.2389731 -2.1461706 -0.11872012 -0.14171185
-0.015878474 -0.010095771 0.022393236 -1.2196229 4.5769963 -0.24064527 -0.23612945 -0.4422456
1.7294911 -1.919351 -0.11376721 -0.057410747 -0.14968951 -0.3606935 0.005675833 -0.4850276
-1.1163391 -0.022510963 -0.21683757 0.13971145 0.6383339 -0.06674855 -0.17864259 -0.23622547
-0.49801147 1.8780296 -0.16057962 -1.0150273 -0.021710057 0.0152068315 -0.33571967 0.0018628122
00000000: 49b3 86be 84ff eabb 824e 0cbe 5c32 0fbe
00000010: 22a4 743f 089e 8c3f 88be 4c40 853e a5be
00000020: 0b51 9fbd 1879 8a3f 83b3 96be 5627 9cbd
00000030: 7247 5cbe 015d bbbd 35d3 00be b1f0 bdbe
00000040: 7523 153f f314 aebd 2ff6 33bd 18f7 4d3b
00000050: af57 a8be ea62 04be 1b1e aabe 67a7 80bc
00000060: 8fed d9bd 6b4e 0b3f b2c0 f83c 3d13 88bd
00000070: bbd0 4040 d46d 4540 dc95 afbd 4afd 853f
00000080: 944e e3bd 33eb 50be 35cd a4bb 5366 9a3e
00000090: 941e c040 e815 afbe 1214 59bf f0f2 1040
000000a0: d549 b2bd 318b 7540 8127 09be a9d3 30bd
000000b0: 74aa 3bbe 52ec 89be 92fe fdbd 7b38 603e
000000c0: e0c1 0cbe 0a1e e13f cf37 94bd 3d3c 66bd
000000d0: 3ad4 90be 54ab 5c40 7f80 2640 db86 ecbc
000000e0: 292d d43f 4c7c 113f a62a a8be 48be 99be
000000f0: fed2 55bd 1ca3 aabd ab37 b6be 7a3a 183e
00000100: 9223 cc3b a6dc 8040 3bb0 17be ae1a 903c
00000110: 9fac ca3f 8229 d2bd 6e6c 90bf db02 bc3f
00000120: f401 82be 35c0 a140 6944 aebd 2551 dd3f
00000130: 706e 3dbe 10b6 28be 8b58 c2be e608 31bc
00000140: 513a ddbb 88bf b5be 1015 b8be 6818 4ebe
00000150: a2e8 173b 4c96 cc40 31d9 803c 159b cabf
00000160: 9ec3 9ebe bd4a 3b3f 7a93 3c3f c2ab ce3c
00000170: 564b 0f40 dc5a 09c0 8923 f3bd e91c 11be
00000180: 9313 82bc bc68 25bc 0572 b73c 9a1c 9cbf
00000190: c176 9240 b76b 76be ebcb 71be 046e e2be
000001a0: f75f dd3f 4bad f5bf c8fe e8bd 8827 6bbd
000001b0: 3548 19be d2ac b8be 57fc b93b 8a55 f8be
000001c0: 33e4 8ebf e968 b8bc ab0a 5ebe 8510 0f3e
000001d0: da69 233f 77b3 88bd 15ee 36be 17e5 71be
000001e0: 5cfb febe 4663 f03f fc6e 24be 6aec 81bf
000001f0: 4ad9 b1bc 1326 793c 73e3 abbe 9b29 f43a

fc2.weight f4 [8, 128]
-0.11425791 0.013240939 0.15189397 0.063264646 1.2945845 1.0719132 -0.9965901 0.30895463
0.14696503 0.56091183 -0.3244335 0.1441417 -0.23322667 0.07804207 0.12767342 0.27091947
0.19599797 0.023824016 -0.02060943 0.11040823 0.25431642 0.11714638 0.37232274 -0.02293628
0.11545188 0.11939786 1.0703051 0.05963412 -0.039097674 -0.35757986 0.16511244 -0.4467459
0.09175718 -0.14845246 0.031220995 0.0031303605 -0.043473355 -0.28135198 -0.30300888 -0.8011615
0.052738942 0.56559753 0.063333414 0.101018414 0.051674012 -0.2928119 0.13146278 -0.79484594
0.10778932 -0.29001507 0.0061466526 0.054100234 0.5152948 -0.46132353 0.6998609 0.14469677
-0.38214967 1.3392237 0.36597088 -0.31413287 0.12825172 0.09192835 0.1754646 1.0255623
0.0658774 -0.033444926 0.19100647 0.011770423 0.46734574 -0.005668368 0.16765268 -0.40750495
0.16599752 0.79389787 0.10437365 0.77751124 0.22867022 0.12147303 0.25646272 0.12527412
-0.02464116 -0.28918496 0.29879138 0.51980186 0.08093006 0.8184504 0.14506264 1.2694286
-0.37743026 -0.89997625 -1.149549 0.12778084 0.9697649 -0.33477885 0.034351964 -0.017950816
0.12223586 -0.007936538 -0.02127455 0.54804134 1.271538 -0.10439252 -0.19297232 -0.51145285
0.44586542 0.028213812 0.05691027 0.08077636 0.12544273 -1.2163662 0.29687673 0.1587971
-1.0080994 0.02210523 -0.07303101 0.014131747 -0.5164372 0.0010788916 0.20715497 0.20962755
-0.9846355 -0.43850195 -0.04081144 0.26169896 0.013166789 -0.025352076 -0.36356345 -0.00047995328
0.106879674 -0.0002973425 0.29704475 0.037927218 -1.6067196 -0.41269433 0.43945915 0.34571207
-0.017483812 -0.14807524 0.05635778 0.06765093 0.21168093 0.02103971 0.0075182416 -0.27255836
-0.21956407 0.021992974 0.07197141 0.026174653 -0.35963413 -0.29249224 0.35286587 0.028501848
0.044419218 -0.7896686 -0.33990538 -0.00037218785 -1.7426106 0.28306183 0.09386262 -0.53536344
0.050574258 0.10181924 0.02492842 0.13545999 0.21857128 0.20189017 -0.55627733 0.9770798
0.054545376 0.39702654 0.036579728 0.10773141 -0.22874749 0.36901215 0.03744802 0.18674456
0.013623151 -0.052480604 0.13010512 0.069496594 0.26527414 0.82138044 0.14545482 0.052172877
0.3351718 -1.3269825 0.24372767 -0.2568208 -0.0041706758 -0.02244447 0.117788956 1.4878242
-0.030456088 0.45083243 0.24009573 0.0286742 0.31963703 0.0229945 1.1958609 1.1078076
0.115038335 -0.4677667 0.023056148 0.6407772 0.2668247 0.11101016 0.33439863 0.086134665
-0.02885475 0.35695586 0.20927036 -0.42909554 0.057702985 1.1970015 0.12388547 0.5519773
0.19773936 -0.7155637 -0.49106038 -0.0138888415 -0.17542733 0.9208904 0.10039406 0.14576681
0.033146046 -0.020461341 0.007516965 1.4677699 0.016548501 -0.17999698 -0.24195828 0.21890076
-1.3593634 -0.55800647 -0.017877514 0.029409794 -0.21764085 0.09670707 0.60218406 -0.17920026
-0.50043654 0.09040114 -0.13639805 0.029154949 -0.38464922 0.05381874 0.107794836 -0.34992552
-0.32571185 -0.26707092 0.14612919 1.4058591 0.12516981 0.100323714 -0.25346753 -0.010606724
00000000: 0d00 eabd 86f0 583c 188a 1b3e e590 813d
00000010: f2b4 a53f 7434 893f 8720 7fbf 4d2f 9e3e
00000020: 007e 163e eb97 0f3f 261c a6be e299 133e
00000030: f9d2 6ebe 85d4 9f3d d2bc 023e f5b5 8a3e
00000040: b1b3 483e 952a c33c 1bd5 a8bc b61d e23d
00000050: c335 823e 71ea ef3d 16a1 be3e dee4 bbbc
00000060: 0972 ec3d dd86 f43d c2ff 883f e842 743d
00000070: e224 20bd b514 b7be 3c13 293e e1bb e4be
00000080: 30eb bb3d ec03 18be 2cc3 ff3c bc26 4d3b
00000090: 1e11 32bd 5e0d 90be fb23 9bbe ec18 4dbf
000000a0: ca04 583d 00cb 103f f3b4 813d bee2 ce3d
000000b0: 21a8 533d 71eb 95be 2e9e 063e 067b 4bbf
000000c0: a6c0 dc3d db7c 94be dc69 c93b 3598 5d3d
000000d0: 5cea 033f 9932 ecbe 152a 333f 642b 143e
000000e0: 1fa9 c3be af6b ab3f 8960 bb3e 06d6 a0be
000000f0: 6b54 033e ee44 bc3d feac 333e a045 833f
00000100: bbea 863d 8cfd 08bd 3397 433e bbd8 403c
00000110: f147 ef3e b8bd b9bb 25ad 2b3e 7da4 d0be
00000120: 41fb 293e e43c 4b3f dac1 d53d fa0a 473f
00000130: 8728 6a3e dac6 f83d 154f 833e dc47 003e
00000140: 42dc c9bc 0d10 94be 2ffb 983e bc11 053f
00000150: a9be a53d f785 513f 4d8b 143e a37c a23f
00000160: 8a3e c1be d864 66bf 6c24 93bf fbd8 023e
00000170: 8342 783f 2268 abbe a5b4 0c3d 970d 93bc
00000180: cb56 fa3d 4108 02bc f747 aebc 704c 0c3f
00000190: c2c1 a23f bfcb d5bd 899a 45be 93ee 02bf
000001a0: 7948 e43e a720 e73c be1a 693d 146e a53d
000001b0: 0f74 003e e3b1 9bbf 3a00 983e b59b 223e
000001c0: 6709 81bf 0716 b53c 4891 95bd d888 673c
000001d0: 3a35 04bf 9869 8d3a 6f20 543e 9ba8 563e
000001e0: 1211 7cbf 5483 e0be e629 27bd 68fd 853e
000001f0: 84b9 573c 28af cfbc fd24 babe 3da2 fbb9
00000200: bbe3 da3d a3e4 9bb9 4016 983e 9259 1b3d
00000210: fda8 cdbf ac4c d3be ca00 e13e 2c01 b13e
00000220: 363a 8fbc 09a1 17be 6ad7 663d 928c 8a3d
00000230: e3c2 583e 785b ac3c 955b f63b c58c 8bbe
00000240: 67d5 60be 9c2a b43c bf65 933d 3a6c d63c
00000250: f721 b8be 8bc1 95be d6aa b43e b57c e93c
00000260: edf0 353d b927 4abf 1408 aebe 3522 c3b9
00000270: dd0d dfbf 7bed 903e 0c3b c03d 940d 09bf
00000280: f426 4f3d 9b86 d03d b036 cc3c 06b6 0a3e
00000290: 26d1 5f3e 4cbc 4e3e 3168 0ebf e721 7a3f
000002a0: f96a 5f3d 1047 cb3e a0d4 153d 49a2 dc3d
000002b0: c83c 6abe 29ef bc3e 1863 193d f739 3f3e
000002c0: a333 5f3c e7f5 56bd 473a 053e 3b54 8e3d
000002d0: 03d2 873e fd45 523f 1cf2 143e 3ab3 553d
000002e0: a39b ab3e 90da a9bf bf93 793e 047e 83be
000002f0: 2aaa 88bb 77dd b7bc 563b f13d 0671 be3f
00000300: 0c7f f9bc 82d3 e63e a8db 753e 28e6 ea3c
00000310: 77a7 a33e f65e bc3c f811 993f a4cc 8d3f
00000320: 3899 eb3d 1e7f efbe 3fe0 bc3c f909 243f
00000330: 3f9d 883e 4b59 e33d 4c36 ab3e 5f67 b03d
00000340: cc60 ecbc ebc2 b63e f84a 563e 69b2 dbbe
00000350: f759 6c3d 5837 993f aab7 fd3d 624e 0d3f
00000360: 307c 4a3e 2f2f 37bf 446c fbbe 068e 63bc
00000370: 39a3 33be 79bf 6b3f 679b cd3d e543 153e
00000380: 26c4 073d 8b9e a7bc df50 f63b e2df bb3f
00000390: b990 873c 2151 38be e9c3 77be 8527 603e
000003a0: 9fff adbf 83d9 0ebf dd73 92bc cfec f03c
000003b0: 3edd 5ebe 5b0e c63d bc28 1a3f 4680 37be
000003c0: 9c1c 00bf 3c24 b93d eeab 0bbe 5cd6 ee3c
000003d0: bef0 c4be 0a71 5c3d 8ac3 dc3d 7029 b3be
000003e0: b4c3 a6be 85bd 88be e4a2 153e 31f3 b33f
000003f0: 842c 003e 8576 cd3d 7fc6 81be d3c7 2dbc

fc2.bias f4 [8]
5.5874267 4.6073194 3.5335248 6.819245 4.7941666 3.3858645 1.4879239 1.9462748
00000000: 33cc b240 296f 9340 4525 6240 4137 da40
00000010: d069 9940 01b2 5840 4a74 be3f 881f f93f

exp_avg f4 [128]
6e-45 0.0 1.4557115 6e-45 0.0 3.3898153 6e-45 6e-45
6e-45 6e-45 6e-45 6e-45 0.0 0.0 6e-45 -0.44832012
6e-45 6e-45 0.0 0.0 6e-45 0.0 6e-45 0.0
6e-45 6e-45 0.0 6e-45 6e-45 0.0 6e-45 6e-45
6e-45 6e-45 6e-45 6e-45 6e-45 6e-45 0.0 6e-45
6e-45 0.60152566 6e-45 6e-45 6e-45 -0.019779623 6e-45 6e-45
6e-45 6e-45 -0.07603966 6e-45 0.0 -19.89331 0.0 0.0
6e-45 6e-45 0.0 0.0 0.0 0.0 0.0 0.0
6e-45 0.0 6e-45 6e-45 0.0 -0.717101 6e-45 6e-45
0.0 0.0 0.0 0.0 6e-45 0.007866633 6e-45 6e-45
6e-45 6e-45 6e-45 6e-45 -0.3231311 6e-45 6e-45 0.0
6e-45 6e-45 6e-45 0.0 6e-45 6e-45 0.0 6e-45
6e-45 6e-45 6e-45 6e-45 6e-45 6e-45 0.0 6e-45
0.0 6e-45 6e-45 6e-45 6e-45 0.0 0.0 0.0
6e-45 -0.21859577 0.0 6e-45 0.0 6e-45 22.006271 6e-45
6e-45 6e-45 6e-45 6e-45 0.0 6e-45 -4.785447 6e-45
00000000: 0400 0000 0000 0000 c154 ba3f 0400 0000
00000010: 0000 0000 bcf2 5840 0400 0000 0400 0000
00000020: 0400 0000 0400 0000 0400 0000 0400 0000
00000030: 0000 0000 0000 0000 0400 0000 378a e5be
00000040: 0400 0000 0400 0000 0000 0000 0000 0000
00000050: 0400 0000 0000 0000 0400 0000 0000 0000
00000060: 0400 0000 0400 0000 0000 0000 0400 0000
00000070: 0400 0000 0000 0000 0400 0000 0400 0000
00000080: 0400 0000 0400 0000 0400 0000 0400 0000
00000090: 0400 0000 0400 0000 0000 0000 0400 0000
000000a0: 0400 0000 96fd 193f 0400 0000 0400 0000
000000b0: 0400 0000 e008 a2bc 0400 0000 0400 0000
000000c0: 0400 0000 0400 0000 aeba 9bbd 0400 0000
000000d0: 0000 0000 8025 9fc1 0000 0000 0000 0000
000000e0: 0400 0000 0400 0000 0000 0000 0000 0000
000000f0: 0000 0000 0000 0000 0000 0000 0000 0000
00000100: 0400 0000 0000 0000 0400 0000 0400 0000
00000110: 0000 0000 ee93 37bf 0400 0000 0400 0000
00000120: 0000 0000 0000 0000 0000 0000 0000 0000
00000130: 0400 0000 0de3 003c 0400 0000 0400 0000
00000140: 0400 0000 0400 0000 0400 0000 0400 0000
00000150: 7171 a5be 0400 0000 0400 0000 0000 0000
00000160: 0400 0000 0400 0000 0400 0000 0000 0000
00000170: 0400 0000 0400 0000 0000 0000 0400 0000
00000180: 0400 0000 0400 0000 0400 0000 0400 0000
00000190: 0400 0000 0400 0000 0000 0000 0400 0000
000001a0: 0000 0000 0400 0000 0400 0000 0400 0000
000001b0: 0400 0000 0000 0000 0000 0000 0000 0000
000001c0: 0400 0000 92d7 5fbe 0000 0000 0400 0000
000001d0: 0000 0000 0400 0000 d80c b041 0400 0000
000001e0: 0400 0000 0400 0000 0400 0000 0400 0000
000001f0: 0000 0000 0400 0000 6222 99c0 0400 0000

exp_avg_sq f4 [128]
3.1015782e-24 0.0 336.3687 3.8747938e-13 0.0 5725.6533 2.5577014e-19 3.5903177e-20
6.175405e-14 6.1813433e-18 1.1470499e-24 1.0630325e-19 0.0 0.0 6.5664466e-27 86.973145
4.3008564e-23 1.3049018e-20 0.0 0.0 2.3208618e-16 0.0 1.0789891e-15 0.0
8.812953e-20 8.945903e-09 0.0 1.3165675e-21 4.493174e-12 0.0 1.1558298e-25 1.9201825e-12
1.8246026e-17 9.0436736e-20 1.4916968e-25 1.338606e-17 8.069272e-19 2.6021306e-19 0.0 2.5121376e-24
4.684718e-14 80.87246 2.749227e-15 3.1337288e-24 5.183431e-19 0.095172025 1.5626609e-18 4.652105e-19
8.205612e-19 2.99472e-05 58.760216 7.754688e-19 0.0 6146.9272 0.0 0.0
8.788025e-24 1.5135438e-18 0.0 0.0 0.0 0.0 0.0 0.0
6.1987215e-08 0.0 1.6115033e-19 6.3657204e-27 0.0 296.83124 4.932463e-19 1.9350075e-18
0.0 0.0 0.0 0.0 7.308446e-18 1971.6748 1.0936398e-16 1.1496336e-15
4.7362093e-22 1.0145659e-18 4.7004485e-18 2.1582653e-17 317.38046 1.9071683e-17 2.6684862e-19 0.0
1.1610716e-16 2.6645562e-21 1.9880847e-22 0.0 7.720405e-14 2.8588551e-18 0.0 3.4751346e-18
4.4754013e-27 5.656839e-29 4.199693e-21 8.048824e-23 1.0471122e-19 6.6160805e-23 0.0 1.2312294e-19
0.0 5.895349e-16 2.6506331e-15 6.873427e-19 1.6821965e-06 0.0 0.0 0.0
1.5694496e-10 11.501814 0.0 2.4034735e-23 0.0 3.843053e-10 5986.613 1.8484583e-16
1.1783811e-19 9.3986894e-15 6.177991e-17 2.58315e-22 0.0 2.377435e-18 3625.792 1.1494541e-24
00000000: 16f9 6f18 0000 0000 322f a843 aa21 da2a
00000010: 0000 0000 3aed b245 e4fa 9620 478c 291f
00000020: c90e 8b29 230d e422 547f b117 5f00 fb1f
00000030: 0000 0000 0000 0000 d70f 0214 40f2 ad42
00000040: 06fa 4f1a 2e7d 761e 0000 0000 0000 0000
00000050: e0c9 8525 0000 0000 ac7f 9b26 0000 0000
00000060: 0817 d01f 7fb0 1932 0000 0000 3df4 c61c
00000070: ea16 9e2c 0000 0000 b515 0f16 ef1e 072c
00000080: 364a a823 a789 d51f c2a9 3816 e2ed 7623
00000090: b229 6e21 499a 9920 0000 0000 035e 4218
000000a0: 1ffb 5229 b3be a142 491a 4627 e575 7218
000000b0: e6fc 1821 8de9 c23d a99b e621 504e 0921
000000c0: da2f 7221 1f37 fb37 760a 6b42 c4e0 6421
000000d0: 0000 0000 6b17 c045 0000 0000 0000 0000
000000e0: 31fc 2919 115c df21 0000 0000 0000 0000
000000f0: 0000 0000 0000 0000 0000 0000 0000 0000
00000100: d51d 8533 0000 0000 b340 3e20 132c fc13
00000110: 0000 0000 666a 9443 a394 1121 42c7 0e22
00000120: 0000 0000 0000 0000 0000 0000 0000 0000
00000130: 29d1 0623 9875 f644 192d fc24 fead a526
00000140: a524 0f1c 37b9 9521 7b6a ad22 9910 c723
00000150: b3b0 9e43 bde7 af23 0685 9d20 0000 0000
00000160: c9dc 0525 0354 491d 3e58 701b 0000 0000
00000170: 1bd9 ad29 3ff2 5222 0000 0000 b835 8022
00000180: f649 b113 fc6a 8f10 f0a8 9e1d cf9b c21a
00000190: 0c3e f71f 8ef7 9f1a 0000 0000 a05b 1120
000001a0: 0000 0000 ffeb 2926 8dff 3e27 25de 4a21
000001b0: d5c7 e135 0000 0000 0000 0000 0000 0000
000001c0: 1490 2c2f 6e07 3841 0000 0000 1f73 e819
000001d0: 0000 0000 2a46 d32f e714 bb45 dc1c 5525
000001e0: 621e 0b20 ce4f 2928 6c74 8e24 4f24 9c1b
000001f0: 0000 0000 7a6c 2f22 ac9c 6245 91de b117
